700.batchsize/703.recommendation-batchsize/model/dlrm_tiny.pt (torch, 8037 bytes, 6 tensors)

user_emb.weight f4 [32, 8]
00000000: 851b 90bf 8a80 93bf d64b 80be 5d25 debe
00000010: 1545 593f 8327 313f 6dcc a1be c15f 07c0
00000020: 3801 a53e f4b4 a1bf ff30 b33e bbc3 9d3e
00000030: 776f f53d 936b 9e3f 8ef2 8e3f 7c36 7dbe
00000040: c223 adbf 4614 d9bf 0410 113f 5d23 4b3f
00000050: 8b4d 193f 5b0d c7bf cac6 aebe 4e2f ed3f
00000060: 6b0c 403f 2be3 15bf eb8e 31be a4e1 3b3e
00000070: c0d6 b13f 000d cb3f 9c40 723f 33fb 57bf
00000080: c813 1dbf 6467 013d 2840 fcbe 7060 7e3e
00000090: d01f e13e d637 e63d f80a 243f 3cdf e13e
000000a0: b987 d1bd 9cdd 4a3f 534f 94be 1712 573d
000000b0: 2fda 053f 5557 1340 b704 bcbf 9e18 cbbf
000000c0: 9f4f 2cbf de71 5f3f f415 873f aa1c 363e
000000d0: 10dd 6bbe 0894 c8be 5d15 0b3f 1752 cabe
000000e0: 9476 e4be 2478 3e3f 75af c23f ad45 5a40
000000f0: d9fd c3bf 23f8 9dbf c2ec e83f fc30 0dbf
00000100: 3eba 11bf 3f83 6b3f 392f 8e3f 981a a53f
00000110: ce34 bdbf 8b4d 2440 c23c f2be 4fcd ab3e
00000120: c18d d0bf 00bc 0cbf d6ac f5be 42d6 ffbe
00000130: d092 88bf 57b6 8e3f 2c0c 10be de45 4e3f
00000140: 5c2d bfbd 86e2 2f3f d69b 56bf 25c9 693a
00000150: 5f86 573f 47d1 ccbe 170d 853f d85f b73e
00000160: ace7 7bbe 6e5c 1340 31db f0bf 90ae 4bbd
00000170: dcc1 85bf 3ddd 74bf b458 093d 3cc8 353f
00000180: c5ab d23f 041a aebf e16a b03e 0d16 053f
00000190: ad40 27c0 1326 d9bf 37b8 69be 4356 8f3e
000001a0: 46da 7c3e ef76 9d3d 190f ad3e 59a7 e83e
000001b0: 0ff4 e93e fa88 5dbf cc03 483f 1242 6dbf
000001c0: f015 60be 1cd8 1bc0 5554 95bd 5535 0bbd
000001d0: 9967 763f 2ec6 b23e efe4 6bbf 812c 66bd
000001e0: 2b69 1fbf fe6c edbe f7fc f53f 731a cebe
000001f0: 95c0 fd3d a017 953f 3562 6c3f e492 b13f
00000200: ea24 62bf d47b d6be 1c09 4ebf cbcb 103f
00000210: db40 1c3f 5c0b ef3e 22af f93f 9d13 88bf
00000220: f75c 9ebd 6a62 ee3d c80f 18bf 0a39 9fbf
00000230: f115 d1bd 504b 84bf 3212 a0be 30af 7b3e
00000240: bdef 84be b25a f23d 74d0 793e a211 953f
00000250: 41c0 933e 24f0 c53e b3e3 4dbe b483 f1bd
00000260: d4cf 443e 13ac 45bf 843e f3bf 4fd0 053e
00000270: 9c4c 34bf 1b23 a13e 9a2b 213e 434e c53e
00000280: dc96 773f 99b7 7dbf 076c 9a3e fac8 dbbd
00000290: da9a 7f3f 8b57 ffbe 2ad8 423f f748 1e3f
000002a0: f9ca a03e f773 5a3e 36dd f5bd 2d8e b83e
000002b0: 32c9 a0be 1b13 8abf 0897 763e 93b7 b2bf
000002c0: 8876 87bd 517a b7be 41e1 c7bf ce93 b5be
000002d0: 9660 8a3f 2fa2 063e b469 c93f cb0b 483f
000002e0: 7711 8abf 8c8d 38bf ef42 bc3f 0820 8d3e
000002f0: 2ab2 2a3f 5290 7ebf 143d 98bf df14 99bf
00000300: eb43 0fbf 9c91 083f 7153 d03e 3f07 ca3e
00000310: 92a0 2f3e 7844 603f 1ffd 92be 1ac5 823f
00000320: 5d5c 98bd fccd 8bbf b0b7 c83e dd32 183f
00000330: cb8a 293f 1e68 9abf 2b81 1b3f 7812 0cbf
00000340: 3ee6 953f 0eac c73d b79f 763f 6c1f 573f
00000350: c277 a0bf 4aa1 7c3f 6d43 fdbe c13a a4bf
00000360: 6b89 743f 464c a43f e075 2abf 9aac 103f
00000370: dc4d 933e ffb3 08bd f6eb 87bf 4558 eabd
00000380: b6c9 afbe 351f c93f b136 443e bd87 c23e
00000390: 303b 14be ec3a 233f 4605 90be 5939 aabf
000003a0: 476b 11be c7bd 08bf 2bfc 05bf 8b8b 5c3f
000003b0: 0510 63bf f0b9 563f 1192 933f aa6b e1bf
000003c0: ad26 bdbf d5b9 e0bf f8fc 9b3d ad0f 8abf
000003d0: 225d b83f 357f e2bd 1dad 133f f93b 2dbe
000003e0: 791f 83bd 21eb 843f 9625 683f 8d76 f3be
000003f0: 0de9 5ebf 7b37 143e cd90 f33f f5e1 c73e
-1.1258398 -1.1523602 -0.25057858 -0.4338788 0.84871036 0.69200915 -0.31601277 -2.1152194
0.32227492 -1.2633348 0.3499832 0.30813393 0.11984151 1.2376579 1.1167772 -0.24727815
-1.3526537 -1.6959312 0.5666506 0.79350835 0.59883946 -1.5550951 -0.3413604 1.8530061
0.7501895 -0.58549756 -0.17339675 0.18347794 1.3893661 1.5863342 0.94629836 -0.84367675
-0.6135831 0.03159274 -0.49267697 0.24841475 0.43969584 0.112411186 0.64079237 0.44115627
-0.10230965 0.792444 -0.2896677 0.052507486 0.52286047 2.3022053 -1.4688939 -1.5866888
-0.6730899 0.8728312 1.0553575 0.17784372 -0.23033547 -0.3917544 0.5432947 -0.39515755
-0.44621718 0.7440207 1.5209795 3.4105027 -1.5311843 -1.234135 1.8197253 -0.5515287
-0.5692481 0.9199714 1.1108161 1.2898741 -1.478174 2.5672328 -0.4731198 0.33555076
-1.629326 -0.54974365 -0.47983426 -0.49968153 -1.0669804 1.1149396 -0.14067143 0.8057536
-0.093348235 0.6870502 -0.83831537 0.00089182175 0.8418941 -0.40003416 1.039462 0.3581531
-0.24600095 2.3025165 -1.8816892 -0.049727023 -1.0449786 -0.9565008 0.03353186 0.7100866
1.645867 -1.3601689 0.34456542 0.5198677 -2.6133225 -1.6964744 -0.22824179 0.279955
0.2469264 0.076887004 0.3380058 0.45440176 0.45694014 -0.86537135 0.78130794 -0.9267894
-0.21883368 -2.4350653 -0.07291476 -0.03398641 0.9625183 0.34916824 -0.921462 -0.056194786
-0.6226985 -0.46372217 1.9217824 -0.40254554 0.12390248 1.1647835 0.9233735 1.3872952
-0.88337576 -0.41891348 -0.8048265 0.56560963 0.6103646 0.46688354 1.9506571 -1.0630985
-0.077325754 0.11639865 -0.5939908 -1.2439282 -0.10209263 -1.0335484 -0.31263882 0.24578547
-0.25964156 0.11833705 0.24395925 1.1646006 0.28857616 0.38659775 -0.20106392 -0.117926985
0.19219905 -0.7721569 -1.9003453 0.13067745 -0.70429397 0.31472096 0.15739289 0.3853627
0.9671457 -0.9910827 0.30160543 -0.107316926 0.9984566 -0.49871477 0.7611109 0.61830086
0.31404856 0.213333 -0.12005083 0.36045972 -0.314035 -1.078708 0.24081051 -1.3962272
-0.06614405 -0.35835508 -1.5615617 -0.3546433 1.0810726 0.13147806 1.5735383 0.78142995
-1.078658 -0.72090983 1.4707927 0.275635 0.66678107 -0.99438965 -1.189364 -1.1959494
-0.5596301 0.5334718 0.4068866 0.39458653 0.17151096 0.87604475 -0.2870874 1.0216401
-0.07439492 -1.0922236 0.39202642 0.5945261 0.66227406 -1.2063024 0.6074397 -0.5471568
1.1710889 0.09749614 0.96337456 0.8403232 -1.2536547 0.9868361 -0.49465504 -1.283043
0.95522183 1.2835777 -0.6658611 0.5651337 0.2877034 -0.033374783 -1.0618885 -0.11442617
-0.3433358 1.5712649 0.19161488 0.37994185 -0.14475703 0.6376178 -0.28129023 -1.3298751
-0.1420108 -0.5341458 -0.523379 0.86150426 -0.8869632 0.8387747 1.1528951 -1.7610981
-1.4777428 -1.7556711 0.07616609 -1.0786034 1.4403422 -0.11059419 0.57686025 -0.16917409
-0.06402487 1.0384256 0.9068235 -0.47551385 -0.8707436 0.14474289 1.9028565 0.3903958

item_emb.weight f4 [64, 8]
00000000: 1a45 21bd 482d 4dbf fcb7 fdbe 5f18 b9be
00000010: fbc9 153f 06f8 93bf 3ece 12be 146a 47be
00000020: de3b afbd a17f b23f 71ce 183f e637 f7be
00000030: 4771 bbbe dbdc a9bf ecfe d83f 2531 0440
00000040: 9a92 6fbe d012 353f 087e 143f e45e 893e
00000050: a7c5 03c0 94b5 083f a40f 09bf 2619 5dbf
00000060: 5777 c0bc 47f9 953f ba20 cc3e 157c 4bbe
00000070: def5 93bf 8222 a2be 60b7 703f 68cf 92bf
00000080: bc0d 0f3f afb0 4a3f a51b 3dbe 7155 3bbf
00000090: d52c a5bd 43e5 7abf e7c5 773d 4258 fabe
000000a0: b150 50bf 2eeb 513f a717 22bf 86ba a53f
000000b0: fd3d bb3f bdd4 1ebf 1407 7d3f 7446 ddbe
000000c0: 468b 1fbf 6b6f 5dbe ab33 fabe f275 493f
000000d0: 8758 dc3d 2e26 89bf 06e5 eebd 192c 82bf
000000e0: 5b57 99bf cbf5 f43e 0e61 9dbf 5a5d afbf
000000f0: c792 c53f 1004 08bd 3256 d6be 93dd 82be
00000100: fb54 04be c09e 5fbd d312 d13e c22c 903f
00000110: f6af f73f d3fb 803f 1998 803f 4ef6 ddbe
00000120: 710d 9fbf 236c a43f 719f 793e 3dc6 073f
00000130: 4c12 6ebc 0216 0fc0 e0a6 bb3f 190a 9cbf
00000140: 43ec 243f 2f85 7b40 2ad2 febd 0737 973e
00000150: 40eb c33e 8aba 0cbf 2079 7ebf a947 ac3f
00000160: a80b f93f a52a a5bf d15d 16c0 3c68 04c0
00000170: d2cf 683f 9fd2 31bf 7ecf fa3f 3b4a 8dbf
00000180: 4588 0a3f 96fc c43f a803 8b3f 338a 9f3f
00000190: 79ac eb3d 7845 cf3f 3d69 ed3e 807e a63f
000001a0: 098c 5f3f 2661 853d 21f3 453f fe5a 78bf
000001b0: cb3e 63bf 5afa a2be f636 abbe de97 e83e
000001c0: c676 ff3e 71c4 603f 4065 c73e c633 bb3f
000001d0: d381 f53e e78c 08bf 92ee 0dbd 9d44 283f
000001e0: cb58 9fbe 77df 0fbf 598c f7be 96d4 a2bf
000001f0: d531 32be 98da 0d3f d503 3abe cb19 70be
00000200: 8ea1 963e 521d 4c3f cfd1 a13f 6d7c 6f3f
00000210: 80a3 0b3f 28c9 c4bf f5f7 9f3e 8d74 3d3f
00000220: d6a0 b93f 6f3f 8340 0622 8f3f 748e c8bf
00000230: 09f0 32bf fc0a 133f db78 9e3f 70fa 23bf
00000240: 7eb4 43bf ea9e 763e 826b 2a3e 0dd6 0ec0
00000250: add1 b13f de98 00bf 2c00 d73f e410 83bf
00000260: 5ecc d73f 55dd 9bbf a3d4 433f 2b3b 993f
00000270: 2779 36bf 774c 86bd 3c1e 0d40 7b80 e43f
00000280: 82fd 41bc 77cb 7a3f 6074 88bf b4cf e23f
00000290: 31fb 8ebe 06c6 8dbe 94b9 3f3f 7ab9 24bf
000002a0: 80a6 73bf d604 8b3e 98ec 2b3f 38cc ec3f
000002b0: 0d71 983f d600 17bf 2cf6 763f 6c32 c1bf
000002c0: e45d 1040 2d49 9d3f 528e f8be 803a e83e
000002d0: 24fc ac3f ac2b de3e 7c64 03bf d27d 3ebe
000002e0: 1123 8d3e 7da5 e03d 7006 b83e 02f5 40bf
000002f0: bae7 6a3e 7b46 82be e23d ca3f a73a 7abe
00000300: 697c 99bf cc6b d2bc 3ab4 e63f b7a2 87bf
00000310: e8c7 5940 5b94 11bf 4e73 f3be f81f df3f
00000320: 3050 51be 1101 a2be 6599 a53f 8e31 ac3f
00000330: 3299 463e a42c c93f dbf5 c3be 1892 b23f
00000340: 587c af3e 0360 cdbf a459 16bf 0fb3 193f
00000350: c827 e03e 088a c5bd ff18 a93e f404 40be
00000360: 0eaa b6bf a1b1 173f 9d3f 94bf 0c7a 123d
00000370: 6732 5d3e 3884 6abf 35a9 c73f 9fd6 49c0
00000380: 6aa4 0fbf e74f dcbe 7e9c aabe 58f0 c5bf
00000390: 2e1f 71bc 77d0 9c3f 5cfc cb3f e7d4 d0bf
000003a0: d2f7 68bd 5531 213f a8d6 8a3e 969c 2fbf
000003b0: eabf 8bbf 54ff d63f a97d 61bf 087d 143f
000003c0: 597c ba3e a17f b43d dd48 a7bf 93d4 34bf
000003d0: 4a28 28be 24b2 78bf b2f2 83bf 17b4 253f
000003e0: 9030 43be 7076 373f 1a03 00c0 d637 1ac0
000003f0: 63b0 603e 4374 d9bf 359b a73f 4fa5 d4bf
-0.03937254 -0.8014722 -0.4955443 -0.36151406 0.5851132 -1.1560066 -0.14336488 -0.1947406
-0.08556341 1.3945199 0.59690005 -0.48284835 -0.3660986 -1.3270525 1.6952796 2.0654995
-0.23395768 0.7073183 0.5800481 0.26830208 -2.0589387 0.53402066 -0.5353949 -0.863665
-0.023494406 1.1716698 0.39868718 -0.19871552 -1.1559408 -0.31666952 0.9402981 -1.1469545
0.5588033 0.7917585 -0.18467577 -0.7317725 -0.08065192 -0.98006076 0.06049147 -0.4889546
-0.81373125 0.8199948 -0.6331734 1.2947547 1.4628292 -0.6204336 0.98838925 -0.43217814
-0.6232189 -0.21624534 -0.48867545 0.78695595 0.10759073 -1.0714777 -0.116647765 -1.0169708
-1.1979784 0.47843775 -1.2295244 -1.3700364 1.5435418 -0.033207 -0.41862637 -0.25559673
-0.12923042 -0.054594755 0.40834674 1.1263659 1.9350574 1.0076851 1.0046417 -0.43351978
-1.2425977 1.2845501 0.24377228 0.5303686 -0.0145307295 -2.2357183 1.4660301 -1.2190582
0.64423007 3.930004 -0.12442429 0.2953417 0.3826542 -0.54972136 -0.9940357 1.3459369
1.9456682 -1.2903639 -2.349476 -2.068862 0.9094211 -0.6946201 1.9594572 -1.1038278
0.5411418 1.5389583 1.0860491 1.246405 0.11507506 1.6193075 0.46369353 1.3007355
0.8732305 0.0651267 0.7732411 -0.97013843 -0.8876769 -0.31831628 -0.3344037 0.45428365
0.49895304 0.87799746 0.38944435 1.4625175 0.4795061 -0.5334 -0.034651347 0.65729696
-0.3112243 -0.56200355 -0.48349264 -1.2721126 -0.17401822 0.5541167 -0.18165524 -0.23447339
0.2942013 0.7973224 1.2642154 0.93549234 0.54546356 -1.5373888 0.31243864 0.7400597
1.4502208 4.1014934 1.1182258 -1.5668473 -0.69897515 0.57438636 1.2380632 -0.6405401
-0.76447284 0.24084058 0.16642573 -2.2318146 1.3892113 -0.50233257 1.6796927 -1.023953
1.6859243 -1.217692 0.7649633 1.1971182 -0.71278614 -0.06557553 2.2049704 1.7851709
-0.011840226 0.9796671 -1.0660515 1.7719636 -0.2792602 -0.27690142 0.74892545 -0.64345515
-0.95175934 0.27152127 0.6715789 1.8499823 1.19095 -0.5898565 0.9646938 -1.5093513
2.2557306 1.2287956 -0.48546082 0.45357132 1.3514447 0.43392694 -0.513252 -0.18602684
0.27565816 0.109690644 0.3594241 -0.7537385 0.22939959 -0.25444397 1.5800135 -0.24436437
-1.1991092 -0.025686167 1.8023751 -1.0596532 3.4028263 -0.56867 -0.47548908 1.7431631
-0.20440745 -0.3164144 1.2937437 1.3452623 0.19394377 1.5716748 -0.3827351 1.3950834
0.34274554 -1.6044925 -0.5873053 0.60038847 0.4378035 -0.09645468 0.33026883 -0.1875189
-1.4270647 0.59255415 -1.1581913 0.035760924 0.21601258 -0.91608 1.5598513 -3.1537244
-0.5611025 -0.4302971 -0.3332252 -1.5463972 -0.0147169065 1.2251118 1.5936389 -1.6314973
-0.056876965 0.629659 0.27116895 -0.68598306 -1.0917943 1.679667 -0.8808237 0.5800328
0.36422995 0.08813406 -1.3069111 -0.7063686 -0.16421619 -0.9714682 -1.030844 0.6472792
-0.19061494 0.71665096 -2.0001893 -2.409658 0.21942286 -1.6988605 1.309424 -1.6612948

category_emb.weight f4 [16, 8]
00000000: 65ad fe3e bf7b 893e 5c0a bd3f b3a7 b53e
00000010: 73f6 cf3f 8aea 173f 49da dcbf 6a3c 1fbf
00000020: c6c7 ccbb a72b 653f 2f4f fcbb e005 393d
00000030: ec4f 143f fa8f cabf 8d79 16bf b06f e9bd
00000040: 6991 333f 353c 0ebf 4e6d c3be 5139 35bd
00000050: 5c03 053f a694 423f 05bf 83bf 450d a0bf
00000060: 3ad8 e8bd 7630 1dbf b65e 5a3f 14d2 1e3e
00000070: dc8e 8d3f 0717 8c3f 6afd 113f eabf 463f
00000080: b9ac adbf eff0 43bf fa0a 56be 1bc6 87be
00000090: 8021 47bf 3d20 b43f 0d92 3ec0 8ba4 13be
000000a0: cf94 59bf 6d7d 98be a545 0840 14b3 003f
000000b0: 5518 63bf 57ab ff3f 6464 d9bf 7e08 2cbf
000000c0: 6cff 42bf 9b0f f5bf d095 8fbf c582 1abf
000000d0: 66d0 1ac0 5dc3 6abf 96ab 333f 9b8f 41bf
000000e0: 8cb0 c03e 3061 903f 5c60 b33c 9532 bf3f
000000f0: 6953 0cc0 355e dfbd d4d3 c8bf 9ee0 0e3f
00000100: 4f61 88bf a71e ce3e d67b cfbe 7c57 15bf
00000110: 125d 84be f205 1bbf 96c2 40be c8a8 753f
00000120: 1715 2e3f a8eb 44bf ff43 95bd 90bf b8bf
00000130: ad91 a1bf 0593 163f f965 60bf 9883 84bf
00000140: 618c 9bbf ddb2 2dbe 5610 153f f5e1 f13f
00000150: 8b9f 8a3e c4ea 3a3f fbda a3bf 4963 b7be
00000160: 25eb 7abd 2a66 ab3f 058a 87bf 73f4 d43e
00000170: e7b5 47bf 0812 c8bc f2cb 71bf 23d3 9b3d
00000180: e455 4740 798e 4fbf 7777 8dbf 9e2a 39bf
00000190: 89c9 493f d1a8 ae3f 3b4f bf3e 380e 80bf
000001a0: 7069 cc3a 5fb7 06be 8a3f d33d a755 bdbe
000001b0: 232b 36bf a65f f6bd e280 9e3f a549 4b3e
000001c0: 0d6b 4cbf 4556 8d3e 5717 c93d 98da 1e40
000001d0: adaf 99bf bdae 823f 2921 c6be e403 69bd
000001e0: ee00 8cbe 9713 7abd f936 083f cead 65bf
000001f0: aa9c a6bf bdb8 afbf 7970 d83f 71a5 ecbe
0.49741665 0.26852223 1.4768786 0.35479507 1.6247085 0.59342253 -1.7254115 -0.6220156
-0.006249401 0.89519733 -0.007699869 0.04517162 0.5793445 -1.5825188 -0.5877922 -0.11398256
0.70143753 -0.5556062 -0.3816933 -0.044244114 0.5195825 0.7600807 -1.029267 -1.250405
-0.11369367 -0.6140207 0.8530077 0.15509826 1.1059222 1.0944527 0.57027304 0.7763659
-1.3568336 -0.7653951 -0.20902625 -0.2651833 -0.7778549 1.4072338 -2.9776642 -0.14418237
-0.8499269 -0.29783192 2.1292508 0.5027325 -0.88709 1.9974164 -1.6983762 -0.6720046
-0.7617099 -1.9145387 -1.1217594 -0.6035579 -2.4189696 -0.9170435 0.70183694 -0.7560975
0.37634695 1.1279659 0.021896534 1.4937311 -2.192591 -0.109066404 -1.5689645 0.5581149
-1.0654696 0.4025776 -0.40524167 -0.58336616 -0.25852257 -0.60555947 -0.18824229 0.95960665
0.6800093 -0.7692208 -0.0728836 -1.443346 -1.2622582 0.58818084 -0.876556 -1.0352659
-1.2152215 -0.16962762 0.5822805 1.8897082 0.27074847 0.73014474 -1.2801203 -0.35817936
-0.061259408 1.3390553 -1.0588995 0.4159275 -0.78011936 -0.02442266 -0.9445182 0.076086305
3.1146173 -0.8107677 -1.1052083 -0.72330654 0.78823143 1.3645269 0.37365136 -1.0004339
0.0015595388 -0.13155888 0.103148535 -0.3697941 -0.7115957 -0.12029962 1.2383082 0.19852312
-0.79850847 0.2760488 0.09818905 2.482092 -1.2006737 1.0209576 -0.38697174 -0.056888476
-0.2734446 -0.06105384 0.5320888 -0.8971833 -1.301656 -1.3728253 1.6909324 -0.46219972

mlp.0.weight f4 [16, 26]
00000000: ed06 32be 8d05 4cbc 2df8 853d 19e7 703d
00000010: dd0c 283e 0e57 453e 37b3 363e b9d4 063e
00000020: e430 0d3e 0c4c cfbc 17d9 1bbe 121a 95bd
00000030: c05c b4bc 450b d9bd 454f cd3d 17fd 8c3d
00000040: d79c 013d 300b 423d d269 303e c14a 923d
00000050: 0b1c 30be 04c6 11be 7806 b13d a6f1 da3c
00000060: 1be1 c33d dc90 48be 5455 39be c24c f63d
00000070: 9d74 003e ccaf 35be 7775 983d b9cf 1cbe
00000080: b315 183e b410 7c3d 3292 463e 8102 46be
00000090: d353 41be dcc6 073e 944b 323e 9214 f63d
000000a0: 5983 053e bb25 29be be5b 113e 3c9b 3dbe
000000b0: ea74 333d c78b 03be 2b88 9fbd e83c 0e3d
000000c0: 4beb 9dbd c432 febc 4958 3ebe be59 3dbe
000000d0: 3095 9b3d 0e02 aabd 6f5b f4bd 7a7b 9ebd
000000e0: bf2f 24be b389 20be 7255 f03d 2322 cc3d
000000f0: a600 d63c 2567 dbbd c2a0 853d 2a5a 103c
00000100: ce85 0fbe 35dc 2c3d acdb 363e dc87 45be
00000110: 5db2 47be ead7 cd3c 6139 173e bb65 f4bd
00000120: 96d5 303d f12c 0d3e ffaa 773d 49d7 2d3d
00000130: c25d 483e a5d4 023e 80e5 e1bd 12de 8a3c
00000140: 9430 cd3d 8e1b 313e 2ace 47be 4d7e d93d
00000150: 9e38 69bd 6ba6 44be 544f 323d 58a9 dabd
00000160: 25ac e33c 3862 02be 0520 17be fc51 88bc
00000170: 54ec 86bd 93e8 ea3d 4084 8a3c 0ac1 1c3e
00000180: 0c8a 163d 5e27 81bd 2c06 083e 6d95 2f3c
00000190: 6cc5 163d ab2d 81bd 9c80 383a 9073 1abd
000001a0: 6196 88bc 1e9e 1cbe be15 9eba 21b1 26be
000001b0: 13d0 2cbd b7c5 e83d 6ca4 0bbe 745d 07be
000001c0: 1c25 44bd a835 5cbd b9fc 073d e65b 053d
000001d0: 58ac cb3d cf57 0abe cac1 62bc 13a3 e03d
000001e0: c3b4 2d3e cf62 6abc 8066 e8bd 93ea 663d
000001f0: 6bba e43d 9fed fabd 8b12 e9bd da86 b13d
00000200: 3822 61bc 4fad 3dbe 3f95 e7bd 6ee1 a23d
00000210: 803a 88bd 239d 0a3e 2fc2 1e3e a4b5 e93c
00000220: 9014 7ebc 92fc 7ebd fa79 22bc 4437 123d
00000230: 1866 19be b5fb 3fbd 710b 27be 1883 f63d
00000240: 5cc8 ffbd e675 373e bb12 4fbd cd17 e6bd
00000250: d5f8 c03d 0b82 ef3c a00f 0b3e ccac a73d
00000260: ed75 41be 8209 fe3d 5d45 17bd 0e84 b1bd
00000270: 1611 ff3d 5c77 123e 6a82 30be cc45 91bc
00000280: c7ea 243e 588d 9b3d e92f 293e bda4 89bd
00000290: 9c90 ddbd 88b0 2c3e 4a6a a73d 58c9 403e
000002a0: 1fc4 a7bd 16f1 00be f24f bcbc 4117 3dbe
000002b0: 696f 9d3d ea1f 143e f0d5 403d d0bd 9ebc
000002c0: 7823 c73d fbf1 febd 2274 443e dfaf 47be
000002d0: 9b60 40be b4d1 3dbd 850a 243e 45dc a03c
000002e0: 1840 9a3d 5f34 13be 7a79 923d 7186 b3bc
000002f0: 38fd a03d 67d4 0d3e 6796 ae3d a6a9 88bc
00000300: a5ed 45bc 82e7 fbbd b146 91bd 9c80 023e
00000310: 010f a1bd 2370 f93d f243 9fbd f015 3bbd
00000320: 39c4 883b cc49 38be 6055 00bb d0ef a1bc
00000330: 6154 90bc d694 20bd 0153 1e3e 6a34 143e
00000340: f41b 08be 4393 ba3d a285 1dbe 00f7 2abe
00000350: 408d 753d 92e3 3c3b cf5e bbbd c8b1 41be
00000360: da7d 9bbd 4726 863d cae1 39be b017 43be
00000370: d1d4 cb3c 75ac 10be dfef 2fbe a5bf 9abd
00000380: a554 01bd 257d 36be 5418 06be 31ae 523c
00000390: ce5e 3dbe facf e1bc 02ac 01be cb37 0bbe
000003a0: f9db 9d3d 4392 1abe c330 18be 1b0d e53d
000003b0: 4030 163d 5be4 363e 5bb7 56bd 4100 c2bd
000003c0: 01af 94bc 760d 823a 0d28 193e 2209 48be
000003d0: a2c7 64bc 3eab b13d f72d ddbd b717 ccbd
000003e0: 3d1a c23d f16c 40be 3758 3e3d 7279 1bbe
000003f0: 90a4 c73d 33b6 2bbe 0cef f63d 041b 3ebe
-0.17385454 -0.012452495 0.065414764 0.058814142 0.16411157 0.1927149 0.17841803 0.13167085
0.13788182 -0.025304817 -0.15219532 -0.07280363 -0.022016883 -0.105978526 0.10024885 0.068842106
0.031643715 0.04737395 0.17227867 0.071431644 -0.17198198 -0.14235693 0.08643812 0.026726555
0.0956442 -0.1958651 -0.18098956 0.12026359 0.12544484 -0.17742842 0.0744428 -0.15313615
0.14852028 0.061539367 0.19391707 -0.19336893 -0.18879633 0.13259453 0.17411643 0.12015642
0.13038386 -0.165183 0.14195153 -0.18516248 0.04381267 -0.1284629 -0.07789644 0.034726053
-0.07710894 -0.031030066 -0.18588366 -0.18491265 0.07596815 -0.08301173 -0.11931502 -0.07738395
-0.16033839 -0.15677528 0.117350474 0.099674486 0.026123356 -0.10713033 0.06524803 0.008810559
-0.14015886 0.042202193 0.17857236 -0.19290107 -0.19501634 0.02512737 0.14767982 -0.11933466
0.04317244 0.13786675 0.06046581 0.04244164 0.19567016 0.1277643 -0.11030102 0.016951595
0.10019031 0.17295668 -0.19512239 0.10619793 -0.05693876 -0.19204108 0.043532684 -0.10676831
0.027792046 -0.1273278 -0.14758308 -0.016640656 -0.06588045 0.11470141 0.016908765 0.15308014
0.036752746 -0.06306337 0.13283604 0.010716778 0.03680937 -0.063075386 0.0007038207 -0.037707865
-0.016673269 -0.15294692 -0.0012060923 -0.16278507 -0.042190623 0.11365836 -0.1363694 -0.13219243
-0.047886953 -0.053762108 0.0332 0.032558344 0.09944981 -0.13510059 -0.013840148 0.10968604
0.16963486 -0.014305784 -0.11347675 0.05637605 0.11168369 -0.12252354 -0.1138049 0.08668299
-0.013741069 -0.18523143 -0.11307763 0.079531536 -0.06651783 0.13536505 0.15503763 0.028528996
-0.015507832 -0.06225259 -0.009916777 0.035697237 -0.14980352 -0.046870906 -0.16312958 0.12036723
-0.124893874 0.17916068 -0.050554972 -0.112350084 0.09422461 0.029236814 0.13580179 0.08187255
-0.18892641 0.12404157 -0.036931384 -0.086677656 0.12454431 0.14303344 -0.17237249 -0.017733477
0.16105185 0.075953186 0.16522183 -0.067208745 -0.10818598 0.16864216 0.0817457 0.18826807
-0.08191704 -0.12591967 -0.02298734 -0.18465902 0.076872654 0.14465299 0.047079027 -0.019377619
0.09723562 -0.12448498 0.19184926 -0.19500683 -0.18786852 -0.046342567 0.16019638 0.019636283
0.07531756 -0.14375447 0.07152076 -0.021914693 0.07860798 0.13850556 0.08524781 -0.016682457
-0.012080585 -0.12300016 -0.070935614 0.12744373 -0.0786419 0.121795915 -0.077766314 -0.045675218
0.004173782 -0.17996901 -0.0019582137 -0.019767672 -0.01761836 -0.03920444 0.15461351 0.1447312
-0.13291913 0.09110119 -0.15383008 -0.16695786 0.05994916 0.0028822166 -0.09148943 -0.18915474
-0.07592364 0.065502696 -0.18152538 -0.19052005 0.024881752 -0.14128287 -0.17181347 -0.075560845
-0.031574864 -0.17821176 -0.13095218 0.012858913 -0.18493196 -0.027564991 -0.12663272 -0.13595502
0.07707972 -0.15094857 -0.14862351 0.1118414 0.03666711 0.17860548 -0.052420955 -0.09472705
-0.018149855 0.0009922225 0.14956684 -0.19534734 -0.013963612 0.0867524 -0.10799783 -0.09965461
0.09477661 -0.18791558 0.046470847 -0.15183046 0.09748185 -0.16768722 0.12057313 -0.18564993

mlp.0.bias f4 [16]
00000000: 0345 07bc d3ef 11be 4b9e 763d 04a3 fe3d
00000010: 98fe 45be 6467 0dbe 48c0 143e e530 3e3d
00000020: 1354 48bc 5498 0f3d 9c44 f4bc 415e 0cbe
00000030: aaa7 3bbe 3415 043e e714 bfbc 882a 95bd
-0.0082562 -0.14251642 0.060209554 0.124334365 -0.19335401 -0.13808972 0.14526474 0.04643335
-0.012227076 0.03505738 -0.029817872 -0.1370783 -0.18325678 0.12898713 -0.023325397 -0.07283503

mlp.2.weight f4 [1, 16]
00000000: ac27 84bd d8a0 0bbe 58a5 97bd 0cc1 5bbe
00000010: 7293 3f3e 4412 d13d 361b 01be 9cc0 aebd
00000020: d0b3 e53d ac98 bdbd dc02 873d 90f9 8c3d
00000030: 7826 21be bc41 803d 409c 7a3c 1696 5f3e
-0.06452879 -0.13635576 -0.07404584 -0.2146036 0.1870859 0.10208562 -0.12608036 -0.08532831
0.11215937 -0.092576355 0.06592342 0.06883538 -0.15737331 0.06262538 0.015296042 0.21834597
